model_optimized.tflite (tflite, 880536 bytes, 12 tensors)

sequential/dense_1/BiasAdd/ReadVariableOp f4 [4]
-0.0054469467 -0.03383999 0.017672881 0.038354035
00000000: 4d7c b2bb cd9b 0abd b8c6 903c 1f19 1d3d

sequential/dense/BiasAdd/ReadVariableOp f4 [256]
-0.03439933 -0.002459062 -0.020075537 -0.017768145 -0.018666742 -0.025085391 -0.033420213 -0.022723138
-0.035840802 0.04497531 -0.008465417 0.05889311 0.021988796 0.07456796 0.039749537 -0.030822849
-0.010178696 -0.046163924 -0.00898272 0.03267243 -0.022491936 0.006918521 0.04313219 0.064311646
0.06694109 0.07079216 -0.034555666 0.0044044736 0.042851325 -0.025226299 -0.033816554 0.015587992
-0.024332048 -0.021304516 -0.013830774 -0.02333774 -0.0059501906 0.045112822 -0.027005212 0.08779737
-0.007101611 -0.01879408 -0.021144252 0.0016761192 -0.006036833 0.06549855 0.012016538 -0.0235137
0.00041195637 0.016223624 -0.006612951 0.06642882 -0.010878996 0.0055798255 -0.0031213912 0.040711887
-0.0077178706 -0.013841521 -0.01326167 -0.02430289 0.0374091 -0.010162862 0.0009809837 -0.023017863
0.06304116 0.061618652 -0.010180312 0.0036000411 -0.006884583 0.022677654 -0.012018115 -0.017339198
0.0582615 0.07481702 0.0140689835 0.0022405866 -0.041553617 0.03880056 -0.007917525 0.03368133
-0.0064441864 0.0024131227 -0.0062193335 -0.01287854 0.07050101 0.094665796 0.0038388511 -0.027372224
0.059802044 0.08012822 -0.037493203 0.078734994 0.009586661 -0.015979938 -0.03366718 0.048129883
-0.008695581 -0.012613968 -0.004851596 0.015083455 0.05269014 -0.007632351 -0.037373476 0.038643934
0.018591419 0.005346225 -0.013779975 -0.0034735866 -0.003967233 -0.028871909 0.033225093 0.06763666
0.011170927 0.08236152 -0.035276975 -0.018258076 -0.006072405 0.005546596 -0.014929982 0.06413275
-0.011378265 0.031317495 0.036802076 -0.010925232 0.088149965 0.09682675 -0.012901741 -0.016041642
-0.012335975 0.034926973 -0.00081360474 -0.01819912 0.02791844 -0.04041133 -0.0062349234 -0.010511004
-0.055648696 0.018685892 0.10427795 0.0661 -0.026813732 0.06697698 0.025795486 0.08030763
0.10118477 0.030647052 0.013043015 -0.0068256 -0.00847321 -0.008037504 -0.022208164 -0.01274267
0.073951274 -0.006961105 0.17643024 -0.025165321 -0.027150333 0.032151103 -0.00654347 0.06723007
0.029427031 -0.013778697 0.09919753 -0.008908201 0.0128149185 0.04673341 0.03848843 -0.029720634
0.060379382 0.07836448 0.085265085 0.07440192 0.03556297 -0.024451341 0.060192633 0.005969959
-0.025473664 -0.042646483 0.021559993 -0.046273842 -0.01816592 -0.02520613 -0.02723833 -0.0073421714
-0.013497752 0.084561415 -0.006212623 -0.029979039 0.007892199 0.05307294 0.0655323 0.026085557
-0.011395722 -0.006731746 -0.027519299 -0.008320609 -0.008302764 -0.032948207 -0.012770337 -0.009878102
-0.021453211 -0.03461464 -0.007020005 -0.025412396 -0.0074294335 0.064696446 -0.022636263 -0.028521318
0.06969314 -0.010094711 -0.038316533 0.10315269 -0.02381605 0.014298404 0.00487589 -0.007959073
-0.025550857 0.029899837 0.11943586 -0.006300704 0.12198967 0.1160956 -0.01659515 -0.03869676
0.06798815 -0.0046092444 -0.008423029 0.01371711 -0.008069798 0.0071462425 0.011431264 0.058715798
-0.009462787 -0.08002972 -0.0071610347 0.04177335 -0.018435994 0.0019105473 0.108940765 -0.030434592
-0.04177243 0.03678647 0.0653751 0.08028272 -0.031899016 -0.027590526 0.05211373 0.027598308
0.008959321 0.01574525 -0.0058724945 0.067469075 0.044286113 0.024978776 -0.008118469 0.056260526
00000000: 50e6 0cbd 3728 21bb 7475 a4bc 808e 91bc
00000010: ffea 98bc e17f cdbc a2e3 08bd e025 babc
00000020: cecd 12bd 0838 383d 88b2 0abc e739 713d
00000030: d921 b43c 16b7 983d 69d0 223d 3380 fcbc
00000040: 8cc4 26bc 6216 3dbd 422c 13bc 87d3 053d
00000050: 0241 b8bc c3b4 e23b 61ab 303d d3b5 833d
00000060: 6918 893d 7bfb 903d 3e8a 0dbd 6753 903b
00000070: df84 2f3d 62a7 cebc 3a83 0abd c764 7f3c
00000080: 0154 c7bc cf86 aebc 799a 62bc ca2e bfbc
00000090: d1f9 c2bb 39c8 383d 093a ddbc 1ccf b33d
000000a0: a1b4 e8bb 0bf6 99bc b636 adbc 3ab1 db3a
000000b0: a0d0 c5bb 1b24 863d 03e1 443c ce9f c0bc
000000c0: d9fb d739 68e7 843c 74b1 d8bb d50b 883d
000000d0: d13d 32bc f8d6 b63b 4190 4cbb 82c1 263d
000000e0: 31e6 fcbb 8cc7 62bc 7a47 59bc db16 c7bc
000000f0: 493a 193d 2282 26bc 5a94 803a f58f bcbc
00000100: b91b 813d d763 7c3d 53cb 26bc abee 6b3b
00000110: 1198 e1bb 7dc6 b93c a1e7 44bc ef0a 8ebc
00000120: 9ca3 6e3d aa39 993d 9881 663c ced6 123b
00000130: 2034 2abd 56ed 1e3d 82b8 01bc 6ff5 093d
00000140: c129 d3bb 7b25 1e3b 8dcb cbbb 8300 53bc
00000150: d562 903d 24e0 c13d 3c95 7b3b b73b e0bc
00000160: fdf2 743d 441a a43d 7992 19bd d03f a13d
00000170: 5f11 1d3c 5ce8 82bc 99e6 09bd d723 453d
00000180: e977 0ebc d1aa 4ebc 23fa 9ebb 9820 773c
00000190: 9ed1 573d cd18 fabb ee14 19bd 1a49 1e3d
000001a0: 084d 983c 632f af3b 67c5 61bc 1da5 63bb
000001b0: 90ff 81bb c884 ecbc 0917 083d 1785 8a3d
000001c0: 4406 373c 28ad a83d 977e 10bd f691 95bc
000001d0: 06fb c6bb 38c0 b53b e29c 74bc 0858 833d
000001e0: e76b 3abc c646 003d c6bd 163d bfff 32bc
000001f0: f887 b43d 1a4d c63d d361 53bc c369 83bc
00000200: d41c 4abc 960f 0f3d 1748 55ba 5216 95bc
00000210: 36b5 e43c 5a86 25bd 544e ccbb 5936 2cbc
00000220: e3ef 63bd 2813 993c ae8f d53d 705f 873d
00000230: 79a8 dbbc 3a2b 893d 0e51 d33c 5478 a43d
00000240: f639 cf3d 870f fb3c 5fb2 553c 48a9 dfbb
00000250: 38d3 0abc bcaf 03bc e5ed b5bc a2c6 50bc
00000260: c473 973d fb19 e4bb 21aa 343e 8127 cebc
00000270: 606a debc e0b0 033d 9b6a d6bb ebaf 893d
00000280: f510 f13c 0bc0 61bc 1328 cb3d b4f3 11bc
00000290: aaf5 513c 886b 3f3d 0ba6 1d3d b078 f3bc
000002a0: 5f50 773d 8e7d a03d 769f ae3d 0960 983d
000002b0: 7aaa 113d 2e4e c8bc 8d8c 763d a59f c33b
000002c0: 25ae d0bc 14ae 2ebd 959e b03c a489 3dbd
000002d0: b2d0 94bc 167d cebc eb22 dfbc 9996 f0bb
000002e0: ad25 5dbc 892e ad3d 4293 cbbb 9a96 f5bc
000002f0: 484e 013c 0363 593d cc35 863d 61b1 d53c
00000300: 1fb5 3abc fa95 dcbb 2770 e1bc 2a53 08bc
00000310: 5108 08bc b3f4 06bd ad3a 51bc c3d7 21bc
00000320: a5be afbc 15c8 0dbd 1208 e6bb a82d d0bc
00000330: 9b72 f3bb 927f 843d af6f b9bc 8aa5 e9bc
00000340: 47bb 8e3d 4964 25bc ccf1 1cbd b841 d33d
00000350: e019 c3bc da43 6a3c eec5 9f3b c666 02bc
00000360: 0850 d1bc 81f0 f43c ca9a f43d 2376 cebb
00000370: b8d5 f93d 88c3 ed3d 8df2 87bc 7e80 1ebd
00000380: 5f3d 8b3d 2509 97bb bf00 0abc bbbd 603c
00000390: 3037 04bc 072b ea3b 324a 3b3c fa7f 703d
000003a0: ce09 1bbc 9fe6 a3bd 1da7 eabb 881a 2b3d
000003b0: 1507 97bc 546b fa3a 561c df3d f751 f9bc
000003c0: 9119 2bbd 69ad 163d 61e3 853d 446b a43d
000003d0: 8ba8 02bd 8705 e2bc 3575 553d d915 e23c
000003e0: 1eca 123c 2ffc 803c 0e6e c0bb 3a2d 8a3d
000003f0: 5b65 353d 4aa0 cc3c 5403 05bc 7071 663d

sequential/conv2d/BiasAdd/ReadVariableOp f4 [32]
0.0034019586 -0.00064839027 0.0011626971 -0.032014955 0.04937414 0.016318116 0.019976221 -0.027332237
0.03158013 -0.055124562 0.014474264 -0.014211786 0.004538307 0.0033118038 0.0002568228 -0.001273071
-0.037695315 0.015513572 -0.00013681845 0.01132789 0.06334807 -0.00435415 0.009004466 -0.002947181
0.01643884 0.015131355 0.022250835 -0.06845224 0.023332193 0.04224039 -0.068201475 -0.014057387
00000000: 65f3 5e3b bcf8 29ba a465 983a 1d22 03bd
00000010: 8a3c 4a3d 92ad 853c 2ca5 a33c dbe7 dfbc
00000020: 2b5a 013d 4bca 61bd 7725 6d3c 8dd8 68bc
00000030: 14b6 943b d90a 593b 2ca6 8639 2ddd a6ba
00000040: 6766 1abd a32c 7e3c ec76 0fb9 9d98 393c
00000050: a2bc 813d 42ad 8ebb 7887 133c 7e25 41bb
00000060: bfaa 863c 81e9 773c 6247 b63c b030 8cbd
00000070: 2823 bf3c 4204 2d3d 37ad 8bbd f450 66bc

sequential/conv2d_1/BiasAdd/ReadVariableOp f4 [32]
-0.039611597 -0.021904282 0.023255121 -0.005449656 0.06280633 -0.018886108 -0.011426163 -0.0072361967
-0.03210542 -0.002887313 -0.01914011 0.014710627 -0.033170708 -0.009157227 -0.00055062736 -0.040760603
-0.010982443 -0.063087754 -0.01915974 0.03229725 -0.021197291 -0.020104721 0.0024442216 -0.029968813
-0.018731836 -0.012652308 0.027909413 -0.044885598 -0.011336431 -0.09243467 0.025105761 0.062178954
00000000: c53f 22bd 9c70 b3bc 8681 be3c 0793 b2bb
00000010: 9ba0 803d 0ab7 9abc cd34 3bbc 9e1d edbb
00000020: f980 03bd 1339 3dbb b8cb 9cbc d704 713c
00000030: 02de 07bd 3208 16bc fa57 10ba 97f4 26bd
00000040: b4ef 33bc 2734 81bd e3f4 9cbc 1f4a 043d
00000050: f1a5 adbc a8b2 a4bc 3c2f 203b 2881 f5bc
00000060: 8273 99bc a04b 4fbc 48a2 e43c f6d9 37bd
00000070: 70bc 39bc 634e bdbd 99aa cd3c 5caf 7e3d

sequential/conv2d_2/BiasAdd/ReadVariableOp f4 [64]
-0.030037919 0.0069985483 0.045470342 -0.006030746 -0.022335842 -0.006411195 0.051697265 -0.004227196
-0.039808493 -0.054721333 0.04439703 -0.027537791 -0.035549026 0.0005232249 -0.036796138 0.02497751
-0.025592567 -0.0347502 -0.075943336 -0.023943221 -0.0492296 -0.027545905 0.013072174 0.009684209
-0.019791726 -0.025209937 0.04032095 -0.012087754 0.04497478 -0.010664071 -0.04419642 -0.028788302
-0.013763294 0.023976855 0.0017617372 -0.025804397 0.0025619303 -0.05340805 -0.026541052 -0.045074742
-0.002486256 0.031915125 -0.021478668 0.008068517 0.022758983 0.0022210511 -0.018341156 -0.0070942705
-0.05544759 -0.021313187 -0.0019949737 -0.068982154 -0.034265023 0.02417732 -0.049129553 0.00046498593
-0.005992844 -0.014919953 0.014131202 -0.046502963 0.013762017 -0.001967942 -0.0065099103 -0.020816935
00000000: 1512 f6bc 1454 e53b 1c3f 3a3d 909d c5bb
00000010: a8f9 b6bc 0015 d2bb 83c0 533d 4a84 8abb
00000020: 3b0e 23bd 7a23 60bd a9d9 353d ef96 e1bc
00000030: db9b 11bd 0729 093a 8cb7 16bd a39d cc3c
00000040: 81a7 d1bc 3a56 0ebd 2e88 9bbd 9324 c4bc
00000050: faa4 49bd f3a7 e1bc ac2c 563c 84aa 1e3c
00000060: 4222 a2bc 1285 cebc 9527 253d b70b 46bc
00000070: 7a37 383d 5bb8 2ebc 4e07 35bd 72d5 ebbc
00000080: 707f 61bc 1c6b c43c 17ea e63a be63 d3bc
00000090: 0fe6 273b 66c2 5abd 9f6c d9bc 4ba0 38bd
000000a0: 74f0 22bb 6fb9 023d 08f4 afbc d031 043c
000000b0: 0c71 ba3c 0e8f 113b 3140 96bc 0e77 e8bb
000000c0: 031d 63bd fe98 aebc 1bbe 02bb 8446 8dbd
000000d0: 7b59 0cbd 840f c63c 123c 49bd 5bc9 f339
000000e0: 9e5f c4bb d272 74bc 8f86 673c e479 3ebd
000000f0: 157a 613c 97f8 00bb 1651 d5bb 4788 aabc

sequential/conv2d_3/BiasAdd/ReadVariableOp f4 [64]
-0.02138814 -0.021744011 0.08154382 0.046370383 0.020278027 0.00023785279 0.0062740305 -0.05009851
0.032903735 -0.02103247 -0.0058735656 0.0028114626 -0.013968783 -0.024119234 -0.01351351 -0.018630616
-0.012161223 0.057349738 0.012661401 0.0149653945 -0.044352457 0.043774568 -0.013450229 0.05274558
-0.046748556 0.018776491 0.0063138595 0.0018048824 0.01315154 0.0138019435 -0.03615622 -0.022068221
0.06696927 0.028653072 -0.014767416 -0.035817403 0.0007596783 -0.03287253 -0.02475829 -0.054810703
0.04937243 -0.01861643 0.0144863725 0.07601471 0.0214789 0.027165873 0.009896329 0.033720974
0.027116772 -0.02453357 -0.04293252 -0.034340855 0.01393417 -0.01675332 -0.044750877 -0.04562248
0.00037595496 0.068607144 0.03056388 0.003237842 -0.030347314 -0.039454274 0.051781643 -0.04842291
00000000: 2e36 afbc 7f20 b2bc 7200 a73d dfee 3d3d
00000010: 1b1e a63c 1f68 7939 6296 cd3b 1834 4dbd
00000020: 11c6 063d 494c acbc 0a77 c0bb 8440 383b
00000030: 53dd 64bc b395 c5bc c567 5dbc 3c9f 98bc
00000040: de3f 47bc 8fe7 6a3d c471 4f3c 6a31 753c
00000050: ecaa 35bd f64c 333d 595e 5cbc c00b 583d
00000060: 6a7b 3fbd 28d1 993c 7ee4 ce3b ce91 ec3a
00000070: 8f79 573c 8c21 623c 8b18 14bd 6ac8 b4bc
00000080: 2f27 893d d9b9 ea3c 08f3 71bc 45b5 12bd
00000090: 2625 473a 59a5 06bd e6d1 cabc 3081 60bd
000000a0: bf3a 4a3d 7c81 98bc 4058 6d3c 9aad 9b3d
000000b0: 85f4 af3c f78a de3c 3624 223c 011f 0a3d
000000c0: fe23 de3c a0fa c8bc 03da 2fbd ffa8 0cbd
000000d0: 254c 643c 423e 89bc b24c 37bd a3de 3abd
000000e0: d21b c539 e781 8c3d 1a61 fa3c f931 543b
000000f0: ee9a f8bc ce9a 21bd fd18 543d 1a57 46bd

sequential/conv2d/Conv2D f4 [32, 3, 3, 3]
0.037950654 0.08213551 -0.07333966 0.0357122 -0.11290835 -0.08342197 -0.051263567 -0.024444234
-0.052818447 0.0628426 -0.17415008 0.014665277 0.16175005 -0.13724029 -0.11651602 0.03258576
0.01956172 -0.0955351 0.07012619 0.032146163 0.11682886 0.12647608 -0.13414258 -0.043466594
0.17164345 -0.028435651 0.15494336 -0.06227711 -0.14583004 0.084325425 0.055373218 0.013698056
-0.18525685 0.030496037 -0.076852374 -0.16558541 -0.121338956 0.08874688 0.13525607 -0.07872537
0.08972704 0.014695392 0.11270889 0.030069072 -0.006784746 0.12210326 0.089282595 0.15705682
-0.06263006 -0.07965355 0.1286483 -0.09984087 0.07780122 -0.098213024 -0.020109992 0.07269791
-0.08966987 0.07713635 0.0043400233 -0.16343036 -0.0070065428 0.019925544 -0.19693443 0.1372598
-0.012224499 -0.16160963 0.100120105 0.045650195 -0.2320292 0.09168145 0.09736197 -0.1391978
0.026600514 -0.020385334 -0.17450744 0.059714314 -0.11501207 -0.20291352 -0.07657102 0.063184634
0.0042085135 -0.03802835 -0.18090712 -0.14173457 -0.18774636 0.039214563 -0.0055712117 -0.04277473
-0.14548266 -0.0022742501 -0.12528971 -0.06589348 -0.015976101 -0.13699688 -0.026090002 0.030588033
-0.13602266 0.033202853 -0.17883214 -0.13848023 -0.1102426 -0.07179618 0.018831322 0.011502974
-0.09252064 0.05249764 -0.015596444 -0.024168616 -0.19020008 -0.16334811 -0.2695175 0.098585725
-0.12860595 0.07333418 -0.074912205 0.010774585 -0.24301247 -0.16503395 -0.22910497 -0.30484417
-0.012492159 -0.016580844 -0.17931966 -0.20113304 -0.20285526 -0.34097466 -0.2953224 -0.16687095
-0.30333441 -0.29912063 -0.35009995 -0.34298638 -0.20570832 -0.095080964 -0.30745426 -0.08473252
0.06324104 0.14507183 -0.11133087 0.112392366 -0.14499873 0.019610362 0.022905445 0.10272743
0.10016623 -0.021656508 0.073783614 -0.12740402 -0.028766645 -0.041328836 -0.075314544 -0.10223992
0.0066833086 0.033433363 -0.063092485 -0.10255276 0.037561316 0.10081739 0.08997243 -0.038782764
0.10675581 -0.0026472036 0.036869437 0.08970227 0.17235439 0.0740676 -0.1259329 0.034079853
0.065001376 -0.17496733 -0.082130276 -0.0020049019 0.029584657 0.036271702 0.13761254 -0.075972974
-0.06558682 -0.03015437 -0.13805278 0.068618216 -0.051667746 0.001609771 0.08494113 -0.054534923
-0.06145544 0.05895155 0.011025828 -0.12853058 0.04004371 0.06734471 0.22117029 0.21548994
0.14534009 0.06556837 0.07326988 -0.0048899823 -0.040916707 0.0034262587 -0.13446726 0.028394004
-0.057322983 -0.03337274 0.0688672 -0.13506311 -0.101807065 0.12028656 -0.005923513 -0.13877177
-0.13170801 -0.08489142 -0.035978984 -0.09180005 -0.046012864 -0.04606064 -0.107287645 0.08465437
0.07256495 -0.032399856 0.10000423 0.13954748 -0.04503722 0.17474206 0.14329351 0.002902365
-0.017983874 0.0087647885 0.062386725 0.11066885 -0.038642135 -0.024379648 -0.077328086 0.060889248
-0.13414024 -0.024702284 -0.07927003 -0.020560222 -0.07682414 -0.105957665 -0.059621464 0.0729365
-0.1325344 -0.15779638 -0.04095289 -0.07156095 0.1485713 -0.016023872 -0.07890613 0.10429257
0.061903257 -0.11472001 0.06921493 0.060064647 -0.14222163 0.0250149 0.040854078 0.05594031
00000000: 2572 1b3d aa36 a83d 1b33 96bd f546 123d
00000010: 7e3c e7bd 23d9 aabd bff9 51bd 463f c8bc
00000020: 2858 58bd 9fb3 803d 6654 32be a146 703c
00000030: cea1 253e b888 0cbe f39f eebd a578 053d
00000040: e63f a03c e8a7 c3bd 529e 8f3d b2ab 033d
00000050: f843 ef3d f282 013e ac5c 09be 070a 32bd
00000060: 4dc3 2f3e e2f1 e8bc 79a9 1e3e 4816 7fbd
00000070: 7854 15be cfb2 ac3d 07cf 623d d06d 603c
00000080: f9b3 3dbe d3d2 f93c c764 9dbd 398f 29be
00000090: 8f80 f8bd edc0 b53d 9180 0a3e c43a a1bd
000000a0: cfc2 b73d f1c4 703c ebd3 e63d 6a53 f63c
000000b0: 9352 debb 4611 fa3d cbd9 b63d 81d3 203e
000000c0: 3044 80bd 6721 a3bd 61bc 033e 5f79 ccbd
000000d0: 3f56 9f3d e923 c9bd b6bd a4bc a4e2 943d
000000e0: d6a4 b7bd aaf9 9d3d c136 8e3b 4a5a 27be
000000f0: 2497 e5bb e53a a33c 2ea9 49be d58d 0c3e
00000100: 4449 48bc ff7c 25be c50b cd3d b3fb 3a3d
00000110: 1099 6dbe 7cc3 bb3d b665 c73d de89 0ebe
00000120: 52e9 d93c 25ff a6bc 14b2 32be ff96 743d
00000130: 738b ebbd 90c8 4fbe 44d1 9cbd f266 813d
00000140: 92e7 893b 9dc3 1bbd b73f 39be de22 11be
00000150: 9540 40be 739f 203d b68e b6bb 8e34 2fbd
00000160: 68f9 14be 960b 15bb f24b 00be 29f3 86bd
00000170: 50e0 82bc e948 0cbe b3ba d5bc c193 fa3c
00000180: 8649 0bbe b7ff 073d c61f 37be c3cd 0dbe
00000190: dfc6 e1bd e009 93bd 2544 9a3c f876 3c3c
000001a0: 767b bdbd c407 573d 3a88 7fbc 43fd c5bc
000001b0: cfc3 42be ba44 27be 33fe 89be 50e7 c93d
000001c0: 47b1 03be 3b30 963d 926b 99bd e387 303c
000001d0: 43d8 78be a9fe 28be 7e9a 6abe 8914 9cbe
000001e0: eaab 4cbc 8dd4 87bc 939f 37be d2f5 4dbe
000001f0: 4ab9 4fbe 3b94 aebe 7f34 97be 38e0 2abe
00000200: a64e 9bbe 5726 99be 4d40 b3be e99b afbe
00000210: 34a5 52be cfb9 c2bd a56a 9dbe 3e88 adbd
00000220: 8584 813d b68d 143e 7001 e4bd f82d e63d
00000230: 8c7a 14be e9a5 a03c 33a4 bb3c c262 d23d
00000240: f423 cd3d fd68 b1bc dd1b 973d 3376 02be
00000250: 07a8 ebbc 6d48 29bd 833e 9abd 2a63 d1bd
00000260: a8ff da3b 6cf1 083d a236 81bd 2e07 d2bd
00000270: e5d9 193d 5979 ce3d 7743 b83d adda 1ebd
00000280: caa2 da3d b57c 2dbb 6804 173d d3b5 b73d
00000290: ab7d 303e c1b0 973d 8ef4 00be 5197 0b3d
000002a0: 711f 853d a32a 33be eb33 a8bd ac64 03bb
000002b0: 865b f23c a391 143d 4dea 0c3e b897 9bbd
000002c0: 6252 86bd 4c06 f7bc b55d 0dbe b587 8c3d
000002d0: 8fa1 53bd f4fe d23a 9df5 ad3d 0360 5fbd
000002e0: b3b8 7bbd 2e77 713d ada5 343c 859d 03be
000002f0: e004 243d 06ec 893d 777a 623e 65a9 5c3e
00000300: 08d4 143e b648 863d 850e 963d 253c a0bb
00000310: 4798 27bd 158b 603b c9b1 09be 8b9a e83c
00000320: 81cb 6abd dbb1 08bd 3f0a 8d3d fc4d 0abe
00000330: 3980 d0bd cd58 f63d 071a c2bb 301a 0ebe
00000340: 77de 06be 8edb adbd b35e 13bd aa01 bcbd
00000350: fc77 3cbd 15aa 3cbd a0b9 dbbd 455f ad3d
00000360: ef9c 943d b6b5 04bd 05cf cc3d 89e5 0e3e
00000370: f378 38bd 95ef 323e 89bb 123e 9b35 3e3b
00000380: eb52 93bc 309a 0f3c 3989 7f3d 5aa6 e23d
00000390: 3747 1ebd d4b7 c7bc 305e 9ebd 0167 793d
000003a0: 0f5c 09be 725c cabc 5358 a2bd e96d a8bc
000003b0: fa55 9dbd 5500 d9bd a335 74bd bb5f 953d
000003c0: 19b7 07be 6095 21be 38be 27bd 8c8e 92bd
000003d0: 1323 183e 7f44 83bc 8999 a1bd 5897 d53d
000003e0: 458e 7d3d 53f2 eabd 8fc0 8d3d 5906 763d
000003f0: 8ca2 11be 0cec cc3c 9b56 273d ab21 653d

sequential/conv2d_1/Conv2D i1 [32, 3, 3, 32]
-25 -20 -67 -16 23 15 8 -22
-1 -33 40 11 72 -46 2 -28
-11 -15 -2 6 -12 -34 -18 -7
-34 19 -17 12 -17 26 10 -78
-5 -51 -15 -8 -14 -33 6 -24
-50 -32 -4 -25 -7 -49 8 -19
-58 -81 -10 -40 -32 3 -14 -28
-40 -52 -43 13 -21 -6 -15 -48
17 -5 -48 0 19 -12 -29 -76
-38 -22 -29 25 -48 -50 -32 -30
-26 -66 -3 0 -10 -17 -40 2
-7 -59 -26 -4 -22 -24 -26 -49
-14 52 -35 -14 9 -23 35 24
4 -4 49 -4 57 22 1 1
26 3 6 -26 5 -3 2 49
-42 0 15 -42 11 14 3 -8
-48 -30 -31 3 25 -47 -45 13
-39 -27 0 -3 31 11 -14 -9
-21 -26 -37 -71 -39 -23 -54 -17
-38 -36 6 -1 -22 0 -11 3
8 -19 11 32 -50 -23 -27 -17
-4 4 12 -34 -3 -46 31 -41
-48 32 -6 -67 -1 -34 -16 3
-1 -21 -39 -9 -54 3 8 7
35 13 -12 -8 30 39 38 28
-21 39 34 22 127 38 45 10
22 74 56 14 9 23 22 11
-14 3 35 3 39 63 18 57
7 55 -7 42 29 35 -37 41
0 29 39 -20 59 66 -22 30
-18 84 28 -40 -22 45 -10 27
-9 -8 55 -9 -10 2 -24 21
00000000: e7ec bdf0 170f 08ea ffdf 280b 48d2 02e4
00000010: f5f1 fe06 f4de eef9 de13 ef0c ef1a 0ab2
00000020: fbcd f1f8 f2df 06e8 cee0 fce7 f9cf 08ed
00000030: c6af f6d8 e003 f2e4 d8cc d50d ebfa f1d0
00000040: 11fb d000 13f4 e3b4 daea e319 d0ce e0e2
00000050: e6be fd00 f6ef d802 f9c5 e6fc eae8 e6cf
00000060: f234 ddf2 09e9 2318 04fc 31fc 3916 0101
00000070: 1a03 06e6 05fd 0231 d600 0fd6 0b0e 03f8
00000080: d0e2 e103 19d1 d30d d9e5 00fd 1f0b f2f7
00000090: ebe6 dbb9 d9e9 caef dadc 06ff ea00 f503
000000a0: 08ed 0b20 cee9 e5ef fc04 0cde fdd2 1fd7
000000b0: d020 fabd ffde f003 ffeb d9f7 ca03 0807
000000c0: 230d f4f8 1e27 261c eb27 2216 7f26 2d0a
000000d0: 164a 380e 0917 160b f203 2303 273f 1239
000000e0: 0737 f92a 1d23 db29 001d 27ec 3b42 ea1e
000000f0: ee54 1cd8 ea2d f61b f7f8 37f7 f602 e815

sequential/conv2d_2/Conv2D i1 [64, 3, 3, 32]
-2 -28 -13 -6 -19 -18 10 -32
20 -9 -6 50 7 7 -24 15
-24 -27 37 9 21 18 -4 -9
13 -22 41 1 21 -47 -6 -4
-35 7 -44 -22 15 -36 15 -78
33 7 -54 -4 -26 4 15 7
-12 35 -19 5 7 -14 6 27
-36 -29 42 18 14 -27 -12 -25
-26 36 2 22 21 17 -45 -49
-24 32 -54 11 -34 -15 -4 18
7 -3 -36 20 35 -39 -24 22
12 -20 24 9 -3 19 -60 10
-12 -20 58 -16 -30 -14 -8 -26
-29 4 40 -19 26 -7 50 -17
49 -11 -11 6 9 22 -18 10
14 18 8 6 -40 -74 56 55
-1 -37 8 15 -16 0 -11 8
40 39 0 2 -1 20 25 11
-18 -14 -16 -54 -23 15 -12 33
-30 4 30 -41 -6 -89 26 21
50 15 -22 -16 -27 3 -32 -22
42 -5 7 -3 0 -13 6 -11
-46 14 19 -55 -32 0 -25 9
-32 0 25 17 -15 -58 55 -65
-30 -20 43 -23 13 40 -13 12
-31 -43 46 -23 9 35 -16 29
29 -42 17 6 21 -8 1 -14
17 -1 -30 -42 0 -82 14 64
-55 -27 73 36 42 2 23 16
-28 -27 60 -46 -2 41 8 -2
29 -24 -7 0 -40 8 44 11
16 -22 4 -50 -24 -127 64 13
00000000: fee4 f3fa edee 0ae0 14f7 fa32 0707 e80f
00000010: e8e5 2509 1512 fcf7 0dea 2901 15d1 fafc
00000020: dd07 d4ea 0fdc 0fb2 2107 cafc e604 0f07
00000030: f423 ed05 07f2 061b dce3 2a12 0ee5 f4e7
00000040: e624 0216 1511 d3cf e820 ca0b def1 fc12
00000050: 07fd dc14 23d9 e816 0cec 1809 fd13 c40a
00000060: f4ec 3af0 e2f2 f8e6 e304 28ed 1af9 32ef
00000070: 31f5 f506 0916 ee0a 0e12 0806 d8b6 3837
00000080: ffdb 080f f000 f508 2827 0002 ff14 190b
00000090: eef2 f0ca e90f f421 e204 1ed7 faa7 1a15
000000a0: 320f eaf0 e503 e0ea 2afb 07fd 00f3 06f5
000000b0: d20e 13c9 e000 e709 e000 1911 f1c6 37bf
000000c0: e2ec 2be9 0d28 f30c e1d5 2ee9 0923 f01d
000000d0: 1dd6 1106 15f8 01f2 11ff e2d6 00ae 0e40
000000e0: c9e5 4924 2a02 1710 e4e5 3cd2 fe29 08fe
000000f0: 1de8 f900 d808 2c0b 10ea 04ce e881 400d

sequential/conv2d_3/Conv2D i1 [64, 3, 3, 64]
4 9 -52 -31 -1 -28 -7 17
-24 -12 2 -36 -2 -2 31 -39
-31 4 -13 -28 -38 25 -53 -20
-24 -23 -12 10 6 -36 -31 -22
11 -33 -18 27 14 -24 -28 23
-30 -35 -14 -2 9 -8 25 28
-8 36 20 9 -23 17 45 -30
-47 4 18 -13 6 6 -39 -31
40 66 -24 10 -21 -26 -43 11
24 4 -3 -54 -36 -6 6 18
-36 18 -9 47 27 65 16 15
-4 4 9 0 -56 -22 -16 15
-12 -40 -34 -9 23 43 -20 12
19 -48 7 -33 13 25 13 30
-28 37 5 10 -18 -7 -18 -34
2 -19 -4 -37 31 47 -10 12
-3 83 -57 39 -19 -7 -6 6
13 16 15 -23 6 -32 34 28
66 52 21 18 38 58 33 5
21 27 -4 -38 -63 -44 0 33
24 -18 78 -13 -21 31 -55 -5
8 19 -16 10 15 24 -29 68
22 45 44 31 -14 -1 -20 -1
-9 -24 33 17 21 70 -42 19
10 21 -38 -46 -18 -3 -32 -9
-37 -12 -41 -1 -32 -9 -1 9
44 -21 6 -20 -44 -13 -2 -3
12 -39 -34 4 -75 -1 -28 -38
-6 -37 28 59 16 -38 -48 -20
-22 -26 -8 22 12 6 -11 78
3 -2 -50 -75 7 10 5 31
-41 29 66 -31 5 -13 -20 -17
00000000: 0409 cce1 ffe4 f911 e8f4 02dc fefe 1fd9
00000010: e104 f3e4 da19 cbec e8e9 f40a 06dc e1ea
00000020: 0bdf ee1b 0ee8 e417 e2dd f2fe 09f8 191c
00000030: f824 1409 e911 2de2 d104 12f3 0606 d9e1
00000040: 2842 e80a ebe6 d50b 1804 fdca dcfa 0612
00000050: dc12 f72f 1b41 100f fc04 0900 c8ea f00f
00000060: f4d8 def7 172b ec0c 13d0 07df 0d19 0d1e
00000070: e425 050a eef9 eede 02ed fcdb 1f2f f60c
00000080: fd53 c727 edf9 fa06 0d10 0fe9 06e0 221c
00000090: 4234 1512 263a 2105 151b fcda c1d4 0021
000000a0: 18ee 4ef3 eb1f c9fb 0813 f00a 0f18 e344
000000b0: 162d 2c1f f2ff ecff f7e8 2111 1546 d613
000000c0: 0a15 dad2 eefd e0f7 dbf4 d7ff e0f7 ff09
000000d0: 2ceb 06ec d4f3 fefd 0cd9 de04 b5ff e4da
000000e0: fadb 1c3b 10da d0ec eae6 f816 0c06 f54e
000000f0: 03fe ceb5 070a 051f d71d 42e1 05f3 ecef

sequential/dense/MatMul i1 [256, 3136] scale=0.0035242399 zero_point=0
-0.059912078 -0.0070484797 0.021145439 -0.056387838 -0.063436314 0.035242397 -0.028193919 -0.035242397
-0.045815118 -0.038766637 -0.059912078 0.017621199 -0.052863598 0.0140969595 -0.024669679 -0.052863598
0.021145439 -0.052863598 0.021145439 -0.017621199 0.024669679 -0.031718157 -0.0035242399 -0.042290878
-0.056387838 -0.021145439 -0.045815118 -0.021145439 -0.059912078 -0.052863598 0.017621199 0.056387838
0.010572719 -0.0035242399 -0.038766637 -0.0035242399 -0.056387838 -0.035242397 -0.035242397 -0.052863598
0.010572719 0.052863598 -0.045815118 0.0 -0.0035242399 -0.0035242399 -0.010572719 0.0
-0.056387838 0.017621199 -0.017621199 -0.0035242399 0.017621199 0.0070484797 0.017621199 0.017621199
-0.059912078 -0.038766637 -0.059912078 -0.056387838 -0.024669679 0.035242397 -0.052863598 0.035242397
-0.0140969595 -0.028193919 -0.049339358 -0.063436314 -0.024669679 0.010572719 -0.0140969595 -0.0035242399
-0.0140969595 0.0140969595 -0.035242397 0.017621199 0.017621199 -0.021145439 -0.07400904 -0.0035242399
-0.010572719 -0.063436314 -0.038766637 -0.042290878 -0.038766637 0.0140969595 -0.045815118 -0.059912078
-0.063436314 -0.010572719 0.052863598 -0.038766637 0.024669679 -0.0035242399 0.0035242399 0.017621199
0.021145439 0.035242397 -0.045815118 0.021145439 -0.035242397 0.035242397 0.059912078 -0.010572719
-0.063436314 -0.031718157 -0.028193919 0.028193919 -0.0070484797 -0.052863598 0.059912078 -0.024669679
0.0035242399 0.024669679 -0.038766637 0.017621199 0.07400904 0.0035242399 -0.049339358 -0.035242397
-0.042290878 -0.021145439 0.059912078 -0.0035242399 -0.045815118 0.0140969595 -0.035242397 0.021145439
-0.017621199 -0.045815118 -0.063436314 -0.028193919 -0.028193919 -0.017621199 -0.010572719 0.010572719
-0.105727196 -0.0070484797 0.0140969595 0.028193919 0.0 0.0 -0.07400904 -0.028193919
-0.0140969595 -0.045815118 0.0140969595 -0.031718157 0.0140969595 -0.077533275 0.038766637 -0.021145439
0.021145439 0.017621199 0.021145439 0.024669679 -0.0070484797 -0.035242397 -0.052863598 -0.028193919
-0.035242397 -0.028193919 0.0 0.0070484797 -0.06696056 -0.010572719 -0.0035242399 0.0035242399
-0.08105752 -0.0070484797 -0.0140969595 -0.035242397 0.017621199 -0.0140969595 -0.0140969595 -0.056387838
0.031718157 0.017621199 -0.0140969595 -0.049339358 -0.017621199 0.0070484797 0.0140969595 0.0
-0.0035242399 0.010572719 -0.0140969595 0.049339358 -0.0070484797 -0.031718157 -0.010572719 0.017621199
0.0070484797 -0.045815118 0.021145439 0.010572719 0.052863598 -0.08105752 -0.024669679 -0.024669679
-0.042290878 0.017621199 -0.0070484797 -0.045815118 -0.035242397 0.0070484797 -0.017621199 0.024669679
0.024669679 -0.084581755 -0.024669679 -0.0070484797 -0.049339358 0.021145439 0.0035242399 -0.024669679
-0.024669679 -0.028193919 -0.063436314 -0.045815118 -0.06696056 0.035242397 0.017621199 0.028193919
-0.0070484797 0.021145439 0.017621199 -0.06696056 -0.059912078 -0.024669679 -0.042290878 -0.0070484797
0.010572719 -0.024669679 -0.059912078 -0.042290878 -0.049339358 -0.035242397 0.0140969595 -0.052863598
-0.0070484797 -0.031718157 -0.042290878 -0.038766637 0.035242397 -0.059912078 -0.0070484797 0.024669679
-0.045815118 -0.0140969595 -0.024669679 -0.06696056 0.0070484797 -0.0070484797 -0.077533275 0.038766637
00000000: effe 06f0 ee0a f8f6 f3f5 ef05 f104 f9f1
00000010: 06f1 06fb 07f7 fff4 f0fa f3fa eff1 0510
00000020: 03ff f5ff f0f6 f6f1 030f f300 ffff fd00
00000030: f005 fbff 0502 0505 eff5 eff0 f90a f10a
00000040: fcf8 f2ee f903 fcff fc04 f605 05fa ebff
00000050: fdee f5f4 f504 f3ef eefd 0ff5 07ff 0105
00000060: 060a f306 f60a 11fd eef7 f808 fef1 11f9
00000070: 0107 f505 1501 f2f6 f4fa 11ff f304 f606
00000080: fbf3 eef8 f8fb fd03 e2fe 0408 0000 ebf8
00000090: fcf3 04f7 04ea 0bfa 0605 0607 fef6 f1f8
000000a0: f6f8 0002 edfd ff01 e9fe fcf6 05fc fcf0
000000b0: 0905 fcf2 fb02 0400 ff03 fc0e fef7 fd05
000000c0: 02f3 0603 0fe9 f9f9 f405 fef3 f602 fb07
000000d0: 07e8 f9fe f206 01f9 f9f8 eef3 ed0a 0508
000000e0: fe06 05ed eff9 f4fe 03f9 eff4 f2f6 04f1
000000f0: fef7 f4f5 0aef fe07 f3fc f9ed 02fe ea0b

sequential/dense_1/MatMul i1 [4, 256] scale=0.003197991 zero_point=0
0.015989956 -0.1758895 0.012791964 0.0703558 0.054365847 0.047969867 0.13431562 -0.051167857
0.015989956 -0.09593973 0.06395982 0.1407116 -0.18228549 -0.124721654 0.16309755 0.022385938
0.006395982 0.041573882 -0.06076183 -0.12152366 -0.03837589 0.15030558 -0.03837589 0.079949774
-0.19187947 -0.15030558 0.07675178 0.019187946 -0.2142654 0.047969867 0.111929685 -0.054365847
-0.08954375 -0.115127675 0.051167857 -0.118325666 0.111929685 0.07675178 -0.019187946 -0.083147764
-0.08634576 0.054365847 -0.012791964 0.1758895 -0.09593973 -0.21746339 -0.044771876 0.054365847
-0.07355379 0.083147764 -0.003197991 -0.14710759 0.12791964 -0.07675178 0.18868147 0.26863125
-0.057563838 -0.12152366 0.028781919 0.003197991 0.118325666 -0.022385938 -0.09274174 -0.019187946
0.13111763 -0.083147764 -0.102335714 -0.09593973 -0.06715781 -0.16949353 0.13751362 -0.111929685
0.083147764 0.07675178 0.003197991 0.041573882 -0.03837589 0.19827545 -0.019187946 -0.006395982
0.108731695 -0.08954375 -0.03837589 -0.009593973 0.23984933 -0.079949774 -0.07355379 -0.105533704
-0.105533704 -0.20467143 0.0703558 -0.07355379 -0.18548349 0.051167857 0.13431562 0.27502725
0.057563838 0.047969867 0.015989956 -0.13431562 -0.06715781 -0.124721654 0.06076183 0.047969867
-0.054365847 -0.13111763 -0.041573882 0.06395982 0.07355379 -0.003197991 0.06715781 -0.20147343
-0.108731695 -0.07675178 -0.115127675 -0.124721654 -0.12152366 0.07355379 -0.124721654 0.08954375
-0.03197991 -0.009593973 0.03837589 -0.079949774 -0.2782252 -0.111929685 0.015989956 -0.09274174
-0.044771876 -0.08954375 0.08954375 0.044771876 -0.044771876 0.009593973 0.083147764 -0.025583928
0.22066139 0.06076183 -0.19187947 -0.025583928 -0.105533704 0.07355379 -0.1790875 -0.18228549
-0.20467143 0.022385938 0.054365847 0.108731695 0.09913772 0.009593973 0.083147764 -0.09274174
-0.16629553 -0.08634576 -0.003197991 0.057563838 -0.30061117 0.08954375 0.105533704 -0.14710759
-0.115127675 -0.015989956 0.041573882 -0.06076183 0.2142654 0.16949353 -0.1758895 -0.13111763
0.30700713 -0.09593973 -0.2142654 -0.24624531 -0.13111763 -0.03837589 -0.08954375 0.019187946
0.025583928 -0.057563838 -0.12791964 0.07355379 0.012791964 0.051167857 -0.108731695 -0.12791964
0.08634576 -0.16309755 0.108731695 0.13111763 0.15670156 -0.27502725 -0.041573882 0.07675178
0.022385938 0.083147764 -0.051167857 0.12152366 0.025583928 0.1407116 -0.15350357 0.13751362
0.23025535 -0.022385938 -0.028781919 0.09913772 -0.13111763 0.105533704 0.13111763 0.0351779
-0.057563838 -0.06715781 -0.06715781 -0.13431562 -0.003197991 -0.003197991 0.105533704 0.028781919
-0.09274174 -0.051167857 -0.105533704 0.09593973 -0.17269152 0.012791964 -0.03837589 -0.1790875
-0.1790875 -0.12791964 -0.03197991 0.07675178 0.003197991 0.006395982 0.083147764 0.044771876
-0.13111763 -0.15989955 0.06715781 0.047969867 -0.07675178 0.0703558 -0.111929685 -0.051167857
0.009593973 -0.0351779 -0.06715781 -0.30380914 -0.13431562 0.09593973 0.22066139 0.0351779
-0.015989956 0.019187946 0.13751362 0.025583928 -0.14710759 -0.012791964 -0.003197991 -0.18868147
00000000: 05c9 0416 110f 2af0 05e2 142c c7d9 3307
00000010: 020d edda f42f f419 c4d1 1806 bd0f 23ef
00000020: e4dc 10db 2318 fae6 e511 fc37 e2bc f211
00000030: e91a ffd2 28e8 3b54 eeda 0901 25f9 e3fa
00000040: 29e6 e0e2 ebcb 2bdd 1a18 010d f43e fafe
00000050: 22e4 f4fd 4be7 e9df dfc0 16e9 c610 2a56
00000060: 120f 05d6 ebd9 130f efd7 f314 17ff 15c1
00000070: dee8 dcd9 da17 d91c f6fd 0ce7 a9dd 05e3
00000080: f2e4 1c0e f203 1af8 4513 c4f8 df17 c8c7
00000090: c007 1122 1f03 1ae3 cce5 ff12 a21c 21d2
000000a0: dcfb 0ded 4335 c9d7 60e2 bdb3 d7f4 e406
000000b0: 08ee d817 0410 ded8 1bcd 2229 31aa f318
000000c0: 071a f026 082c d02b 48f9 f71f d721 290b
000000d0: eeeb ebd6 ffff 2109 e3f0 df1e ca04 f4c8
000000e0: c8d8 f618 0102 1a0e d7ce 150f e816 ddf0
000000f0: 03f5 eba1 d61e 450b fb06 2b08 d2fc ffc5
